train 236999
val 79303
test 79303
gpt2 = GPT2AdapterModel(
  (transformer): GPT2Model(
    (wte): Embedding(50257, 768)
    (wpe): Embedding(1024, 768)
    (drop): Dropout(p=0.1, inplace=False)
    (h): ModuleList(
      (0-5): 6 x GPT2BlockWithAdapters(
        (ln_1): LayerNorm((768,), eps=1e-05, elementwise_affine=True)
        (attn): GPT2AttentionWithAdapters(
          (c_attn): MergedLinear(
            in_features=768, out_features=2304, bias=True
            (loras): ModuleDict()
          )
          (c_proj): Conv1D()
          (attn_dropout): Dropout(p=0.1, inplace=False)
          (resid_dropout): Dropout(p=0.1, inplace=False)
          (prefix_tuning): PrefixTuningLayer(
            (prefix_gates): ModuleDict()
            (pool): PrefixTuningPool(
              (prefix_tunings): ModuleDict()
            )
          )
        )
        (ln_2): LayerNorm((768,), eps=1e-05, elementwise_affine=True)
        (mlp): GPT2MLP(
          (c_fc): Linear(
            in_features=768, out_features=3072, bias=True
            (loras): ModuleDict()
          )
          (c_proj): Linear(
            in_features=3072, out_features=768, bias=True
            (loras): ModuleDict()
          )
          (act): NewGELUActivation()
          (dropout): Dropout(p=0.1, inplace=False)
        )
        (attention_adapters): BottleneckLayer(
          (adapters): ModuleDict(
            (ts_adapter): Adapter(
              (non_linearity): Activation_Function_Class(
                (f): SiLUActivation()
              )
              (adapter_down): Sequential(
                (0): Linear(in_features=768, out_features=48, bias=True)
                (1): Activation_Function_Class(
                  (f): SiLUActivation()
                )
              )
              (adapter_up): Linear(in_features=48, out_features=768, bias=True)
            )
          )
          (adapter_fusion_layer): ModuleDict()
        )
        (output_adapters): BottleneckLayer(
          (adapters): ModuleDict(
            (ts_adapter): Adapter(
              (non_linearity): Activation_Function_Class(
                (f): SiLUActivation()
              )
              (adapter_down): Sequential(
                (0): Linear(in_features=768, out_features=48, bias=True)
                (1): Activation_Function_Class(
                  (f): SiLUActivation()
                )
              )
              (adapter_up): Linear(in_features=48, out_features=768, bias=True)
            )
          )
          (adapter_fusion_layer): ModuleDict()
        )
      )
    )
    (ln_f): LayerNorm((768,), eps=1e-05, elementwise_affine=True)
    (invertible_adapters): ModuleDict()
    (shared_parameters): ModuleDict()
    (prefix_tuning): PrefixTuningPool(
      (prefix_tunings): ModuleDict()
    )
  )
  (heads): ModuleDict(
    (default): CausalLMHead(
      (0): Linear(in_features=768, out_features=50257, bias=False)
    )
  )
)
transformer.wpe.weight
transformer.h.0.ln_1.weight
transformer.h.0.ln_1.bias
transformer.h.0.ln_2.weight
transformer.h.0.ln_2.bias
transformer.h.0.attention_adapters.adapters.ts_adapter.adapter_down.0.weight
transformer.h.0.attention_adapters.adapters.ts_adapter.adapter_down.0.bias
transformer.h.0.attention_adapters.adapters.ts_adapter.adapter_up.weight
…
